…
Sample data - input_ids shape: torch.Size([7, 256])
Sample data - attention_mask shape: torch.Size([7, 256])
Sample data - PF_targets: tensor([0., 0., 1., 1., 1., 0., 0.], device='cuda:0')
Sample data - LRA_targets: tensor([0., 0., 1., 1., 1., 0., 0.], device='cuda:0')
Sample data - PF_score: 0.0
Sample data - PF_US: 1.0
Sample data - PF_neg: 0.0
Sample data - Threat_up: 0.0
Sample data - Threat_down: 0.0
Sample data - Citizen_impact: 1.0

train_dataloader length: 40	test_dataloader length: 10

source TextAssessor:
TextAssessor(
  (text_encoder): BertModel(
    (embeddings): BertEmbeddings(
      (word_embeddings): Embedding(30522, 768, padding_idx=0)
      (position_embeddings): Embedding(512, 768)
      (token_type_embeddings): Embedding(2, 768)
      (LayerNorm): LayerNorm((768,), eps=1e-12, elementwise_affine=True)
      (dropout): Dropout(p=0.1, inplace=False)
    )
    (encoder): BertEncoder(
      (layer): ModuleList(
        (0-11): 12 x BertLayer(
          (attention): BertAttention(
            (self): BertSdpaSelfAttention(
              (query): Linear(in_features=768, out_features=768, bias=True)
              (key): Linear(in_features=768, out_features=768, bias=True)
              (value): Linear(in_features=768, out_features=768, bias=True)
              (dropout): Dropout(p=0.1, inplace=False)
            )
            (output): BertSelfOutput(
              (dense): Linear(in_features=768, out_features=768, bias=True)
              (LayerNorm): LayerNorm((768,), eps=1e-12, elementwise_affine=True)
              (dropout): Dropout(p=0.1, inplace=False)
            )
          )
          (intermediate): BertIntermediate(
            (dense): Linear(in_features=768, out_features=3072, bias=True)
            (intermediate_act_fn): GELUActivation()
          )
          (output): BertOutput(
            (dense): Linear(in_features=3072, out_features=768, bias=True)
            (LayerNorm): LayerNorm((768,), eps=1e-12, elementwise_affine=True)
            (dropout): Dropout(p=0.1, inplace=False)
          )
        )
      )
    )
    (pooler): BertPooler(
      (dense): Linear(in_features=768, out_features=768, bias=True)
      (activation): Tanh()
    )
  )
  (PF_filter): Sequential(
    (0): Linear(in_features=768, out_features=192, bias=True)
    (1): LayerNorm((192,), eps=1e-05, elementwise_affine=True)
    (2): LeakyReLU(negative_slope=0.1)
    (3): Dropout(p=0.7, inplace=False)
    (4): Linear(in_features=192, out_features=1, bias=True)
    (5): Sigmoid()
  )
  (LRA_filter): Sequential(
    (0): Linear(in_features=768, out_features=192, bias=True)
    (1): LayerNorm((192,), eps=1e-05, elementwise_affine=True)
    (2): LeakyReLU(negative_slope=0.1)
    (3): Dropout(p=0.7, inplace=False)
    (4): Linear(in_features=192, out_features=1, bias=True)
    (5): Sigmoid()
  )
  (PF_assessor): Sequential(
    (0): Linear(in_features=768, out_features=192, bias=True)
    (1): ReLU()
    (2): Dropout(p=0.7, inplace=False)
    (3): Linear(in_features=192, out_features=3, bias=True)
  )
  (LRA_assessor): Sequential(
    (0): Linear(in_features=768, out_features=192, bias=True)
    (1): ReLU()
    (2): Dropout(p=0.7, inplace=False)
    (3): Linear(in_features=192, out_features=3, bias=True)
  )
)

==============================	Training Phase 1	==============================
oprimizer: {
  "state": {},
  "param_groups": [
    {
      "lr": 1e-06,
      "betas": [
        0.9,
        0.999
      ],
      "eps": 1e-08,
      "weight_decay": 0.001,
      "amsgrad": false,
      "maximize": false,
      "foreach": null,
      "capturable": false,
…
